Video-master/app/src/main/assets/colormatch.tflite (tflite, 1192 bytes, 3 tensors)

sequential/dense/BiasAdd/ReadVariableOp/resource f4 [4]
000000 ce 90 92 bf 2c df 1a bf 64 a6 a2 bf b7 ad 7f 3f
       -1.1450441 -0.60496783 -1.2707028 0.9987444

sequential/dense/MatMul f4 [4, 4]
000000 2a 2d dc bf bd 41 67 3f 50 79 93 be cb 86 64 be
       -1.7201283 0.90334684 -0.28803492 -0.22317044
000010 04 9b 7f be 5f 47 2f bf 7b 4c 47 be 3b e4 a3 3e
       -0.24961478 -0.6846828 -0.19462769 0.32010064
000020 06 52 02 c0 2a 47 0e bf c7 a1 18 be 97 44 8d 3f
       -2.0362563 -0.5557734 -0.14905463 1.1036557
000030 98 9e d4 3f 44 16 78 bf 5b 1b ee 3e a5 bd c2 bf
       1.6610899 -0.96908975 0.46505246 -1.5214125

sequential/dense_1/MatMul f4 [1, 4]
000000 0a 8a 81 bf 6f 32 88 bb 8d fe a3 bf e7 73 56 3f
       -1.0120251 -0.004156403 -1.2812058 0.837706
